openwakeword/hey_eddee.onnx (onnx, 205430 bytes, 9 tensors)

layer1.weight f4 [32, 1536]
0.00989672 0.018213982 0.024325052 0.025048826 0.0030767776 0.02709993 -0.010648209 0.011810115
-0.0010392243 -0.0120608285 -0.022468226 0.0018699206 0.014292822 -0.031698335 -0.010170641 0.046604767
0.0068187458 0.0062640677 -0.032759283 -0.0015148787 -0.002159959 0.018402394 0.0047341334 -0.0045572054
-0.036055725 -0.012323584 -0.0075930036 0.00067840103 -0.019183157 -0.0018340527 -0.022292648 0.011195971
0.019056318 -0.011995267 0.010027936 0.029169032 0.015468305 -0.0071797855 -0.010307378 -0.016106999
-0.04067464 0.0027745054 -0.019228801 0.007379856 0.009500002 0.010094679 -0.012365533 0.015702257
-0.018224256 -0.025104897 -0.0069900984 -0.012971901 0.009640574 -0.0031591847 -0.007126953 -0.009365085
0.0035975738 -0.011465862 0.018740032 -0.0006841969 -0.020795628 0.011988803 -0.012748926 0.01402749
-0.016307004 -0.020938458 -0.014161665 -0.0068116956 0.027639387 -0.0057190927 0.05481324 -0.013866515
-0.0001826037 -0.020163052 0.017492604 -0.0054703415 0.010584979 0.027968105 -0.006772311 -0.015748695
0.0401136 0.0077668 0.0045576957 0.008403636 0.011124353 0.014322457 0.025512274 -0.005615957
-0.0034621062 0.0072455253 -0.047004238 -0.008937561 -0.0058965823 -0.03188044 0.01161868 -0.013058237
-0.04018255 0.025998278 0.035311252 -0.0033673611 -0.0026086569 -0.014237388 -0.018929195 0.01181623
0.03780157 -0.012423265 -0.001077912 0.030411 0.018869057 0.014260335 0.007565011 -0.018042136
-0.0015393585 -0.020000437 0.009527399 -0.010902988 -0.006433347 0.01281488 -0.017602816 0.010787392
0.01118858 0.01835348 0.0035296355 0.0011894525 0.0056023397 0.021801133 -0.0074916845 0.026745923
-0.0152921 0.023898331 0.021132963 0.02158331 0.008913056 0.003666473 -0.012228179 0.0012910515
0.014272429 0.009098108 0.013433691 -0.010599836 0.0057042683 0.0020954886 -0.019579358 0.033494122
-0.0003469995 -0.020268995 0.023383895 -0.0042082765 0.0133776525 -0.0073138583 -0.029712802 -0.018572839
-0.010049229 -0.011568432 0.00197741 0.012686975 0.0061468543 0.015052941 -0.020560484 0.009644981
-0.008944453 -0.011554727 -0.006915691 -0.0047148913 -0.0022746772 -0.027882963 0.032597885 -0.0026105782
-0.010138939 -0.01002687 0.005374584 0.007292823 -0.0025085916 0.024369685 -0.02034745 0.008117768
0.027077785 0.011795779 0.005136534 -0.0062431716 -0.014235874 0.016699784 -0.024665643 0.023179516
-0.0038967212 0.019620758 0.0018902358 -0.006556543 0.013350937 -0.031252164 -0.025200795 -0.0095829675
-0.0013320761 -0.016752291 0.025408175 0.007828246 0.009295524 0.0034083624 0.011450769 0.027810128
-0.0056811254 0.00791016 0.0035462878 0.007554142 0.0028148298 -0.010081069 0.025987769 -0.030199064
0.029620603 -0.013782087 0.011564258 0.015907777 -0.0046634693 0.007549245 -0.00420627 0.007523648
-0.01089903 -0.010511603 -0.016828567 -0.018974163 -0.00034995785 -0.0021481419 -0.0020429967 -0.008958278
0.013245864 0.0154989455 0.0014985624 -0.014807078 -0.004221714 -0.009167508 -0.042504095 -0.0051636836
-0.030079719 0.03572208 0.0066164257 0.012097252 0.030424243 0.025756452 -0.0037684056 0.01965902
0.027881566 -0.019317077 -0.0075198538 -0.012024081 -0.00596702 -0.017789878 -0.030153766 -0.015379848
-0.02142963 0.0015442194 0.0066433176 -0.00651024 0.011569132 0.020054871 -0.02749703 0.007251785
00000000: da25 223c 7d35 953c 5545 c73c 3233 cd3c
00000010: c3a3 493b ac00 de3c d375 2ebc 367f 413c
00000020: 9536 88ba c89a 45bc 490f b8bc 2018 f53a
00000030: 712c 6a3c 1dd6 01bd c3a2 26bc a4e4 3e3d
00000040: c96f df3b cf42 cd3b 992e 06bd e58e c6ba
00000050: 198e 0dbb 9ec0 963c ca20 9b3b 9c54 95bb
00000060: 2baf 13bd dce8 49bc bbce f8bb b9d6 313a
00000070: ff25 9dbc 9964 f0ba 129f b6bc 4e6f 373c
00000080: ff1b 9c3c cc87 44bc 364c 243c e5f3 ee3c
00000090: c66e 7d3c 6844 ebbb 47e0 28bc d3f2 83bc
000000a0: 749a 26bd 7ad4 353b b885 9dbc b8d2 f13b
000000b0: e5a5 1b3c 2764 253c ce98 4abc 05a2 803c
000000c0: 094b 95bc c9a8 cdbc 320d e5bb 1988 54bc
000000d0: 80f3 1d3c 530a 4fbb 3789 e9bb 0370 19bc
000000e0: 46c5 6b3b 50db 3bbc b284 993c ad5b 33ba
000000f0: 985b aabc af6c 443c dfe0 50bc 8fd3 653c
00000100: 4496 85bc 2187 abbc 5406 68bc a534 dfbb
00000110: ff6b e23c 3a67 bbbb d983 603d 6130 63bc
00000120: 4f79 3fb9 fc2c a5bc a64c 8f3c 8d40 b3bb
00000130: 9f6c 2d3c 5e1d e53c 43ea ddbb 6803 81bc
00000140: 294e 243d a480 fe3b b958 953b 67af 093c
00000150: eb42 363c bda8 6a3c 1eff d03c 1006 b8bb
00000160: 81e4 62bb df6b ed3b 8487 40bd d96e 12bc
00000170: 1e38 c1bb 1095 02bd 475c 3e3c 37f2 55bc
00000180: 7596 24bd 57fa d43c 88a2 103d f2ae 5cbb
00000190: 00f6 2abb ef43 69bc 6611 9bbc dc98 413c
000001a0: d2d5 1a3d f38a 4bbc ba48 8dba 7d20 f93c
000001b0: 4893 9a3c 2ea4 693c e9e3 f73b 1acd 93bc
000001c0: 4dc4 c9ba f5d7 a3bc cf18 1c3c 72a2 32bc
000001d0: d3ce d2bb 81f5 513c c833 90bc 9abd 303c
000001e0: 4e50 373c 0a5a 963c 7551 673b 67e7 9b3a
000001f0: d593 b73b 4a98 b23c ce7c f5bb 441a db3c
00000200: b78b 7abc 6fc6 c33c 091f ad3c 7bcf b03c
00000210: 1108 123c 3649 703b b358 48bc 8038 a93a
00000220: e8d6 693c 3b10 153c fc18 5c3c efaa 2dbc
00000230: dfea ba3b 7754 093b e464 a0bc 2231 093d
00000240: 7ced b5b9 2a0b a6bc 958f bf3c 95e5 89bb
00000250: f12d 5b3c 17a9 efbb 4368 f3bc 1126 98bc
00000260: 85a5 24bc 8589 3dbc 6f97 013b 08dd 4f3c
00000270: 8d6b c93b 9ca0 763c 766e a8bc fb05 1e3c
00000280: c18b 12bc 0a50 3dbc 059d e2bb 607f 9abb
00000290: c012 15bb d06a e4bc 5c85 053d 3c16 2bbb
000002a0: cb1d 26bc be47 24bc 471d b03b a2f8 ee3b
000002b0: 2f67 24bb efa2 c73c b2af a6bc 6300 053c
000002c0: 3bd2 dd3c 1543 413c 5f50 a83b 8593 ccbb
000002d0: 953d 69bc fccd 883c 9a0f cabc f8e2 bd3c
000002e0: 2260 7fbb b6bb a03c cac1 f73a 45d8 d6bb
000002f0: e3bd 5a3c 4502 00bd e671 cebc e101 1dbc
00000300: 0f99 aeba 1a3c 89bc ce24 d03c 0b42 003c
00000310: 414c 183c d55e 5f3b 029c 3b3c 11d2 e33c
00000320: bc28 babb 9e99 013c d668 683b bc88 f73b
00000330: 0279 383b 112b 25bc 4de4 d43c 0764 f7bc
00000340: e8a6 f23c 43ce 61bc 0378 3d3c 0751 823c
00000350: 04d0 98bb a85f f73b c0d4 89bb ef88 f63b
00000360: d891 32bc dc38 2cbc 10dc 89bc b46f 9bbc
00000370: 8c7a b7b9 d7c7 0cbb cce3 05bb bec5 12bc
00000380: 2e05 593c 4aef 7d3c 696b c43a 6399 72bc
00000390: 4e56 8abb 5133 16bc c618 2ebd 1e34 a9bb
000003a0: be69 f6bc 5151 123d 9ace d83b 8d33 463c
000003b0: 433c f93c 32ff d23c 5bf7 76bb f40b a13c
000003c0: e267 e43c d93e 9ebc 1b69 f6bb a700 45bc
000003d0: fe86 c3bb 14bc 91bc 0805 f7bc c2fb 7bbc
000003e0: 318d afbc 6867 ca3a 30b0 d93b da53 d5bb
000003f0: 758c 3d3c 1d4a a43c 7441 e1bc 62a0 ed3b

layer1.bias f4 [32]
-0.0067134406 -0.011331373 -0.01859183 0.02068897 -0.020575443 0.013132817 0.003652029 0.009164228
0.025260493 -0.013606509 -0.024014452 -0.0063223867 -0.01082047 -0.013340862 0.0036286407 0.013772938
-0.02560514 0.02064081 0.026423238 -0.02660291 0.008520737 0.016016696 -0.028102577 -0.0028100936
-0.021636635 -0.02415187 -0.025805488 -0.005300498 -0.0026449722 -0.02149982 0.0039834836 0.028129749
00000000: 6cfc dbbb 39a7 39bc e54d 98bc ea7b a93c
00000010: d58d a8bc 072b 573c e156 6f3b 8f25 163c
00000020: 18ef ce3c d6ed 5ebc f5b9 c4bc 062c cfbb
00000030: 5748 31bc a193 5abc 7dce 6d3b e4a7 613c
00000040: dfc1 d1bc ea16 a93c 8c75 d83c 59ee d9bc
00000050: 909a 0b3c 7235 833c 6037 e6bc 8c29 38bb
00000060: 503f b1bc 24da c5bc 0866 d3bc cdaf adbb
00000070: 4557 2dbb 6420 b0bc e287 823b 5c70 e63c

layernorm1.weight f4 [32]
0.9815106 0.9882825 1.0209084 1.0089799 0.98993766 0.982214 0.9718631 1.0137789
0.97034615 0.9944035 1.0079063 0.9774995 1.0223299 1.0027406 1.0093956 0.9906508
0.9805781 0.978279 0.973365 0.9734477 1.0133203 1.0091336 1.0196047 1.0032866
0.9855883 0.9922308 0.9922869 0.9975551 1.031802 0.99014723 0.9836372 1.0034819
00000000: 4744 7b3f 1500 7d3f 20ad 823f 4126 813f
00000010: 8e6c 7d3f 6072 7b3f 05cc 783f 82c3 813f
00000020: 9b68 783f 3a91 7e3f 1303 813f 683d 7a3f
00000030: b5db 823f ce59 803f e033 813f 4a9b 7d3f
00000040: 2b07 7b3f 7e70 7a3f 732e 793f de33 793f
00000050: 7bb4 813f 4a2b 813f 6882 823f b26b 803f
00000060: 844f 7c3f d602 7e3f 8406 7e3f c55f 7f3f
00000070: 1712 843f 4a7a 7d3f a6cf 7b3f 1872 803f

layernorm1.bias f4 [32]
0.0037002251 -0.01649401 0.009535547 -0.0015131724 -0.027556287 -0.018447433 -0.03263863 -0.00877742
-0.002571584 -0.0013916732 0.004492084 -0.026553554 0.010259529 -0.0057983394 0.003716953 -0.0028707662
-0.023951847 -0.022483991 -0.0032892094 -0.05511011 0.0057230005 0.001263009 0.038138147 -0.007332441
-0.018114267 -0.015163582 -0.0062251356 0.0068205767 0.00919952 -0.01471258 -0.022826567 0.009267164
00000000: 7a7f 723b 721e 87bc fc3a 1c3c a455 c6ba
00000010: b9bd e1bc 121f 97bc 16b0 05bd 2bcf 0fbc
00000020: 0588 28bb ce68 b6ba 5532 933b d786 d9bc
00000030: 9517 283c ffff bdbb 2098 733b 7723 3cbb
00000040: aa36 c4bc 5930 b8bc c78f 57bb 24bb 61bd
00000050: 0288 bb3b 8d8b a53a bf36 1c3d f944 f0bb
00000060: 5f64 94bc ac70 78bc 39fc cbbb 257f df3b
00000070: 95b9 163c 080d 71bc c8fe babc 4ed5 173c

blocks.0.fcn_layer.weight f4 [32, 32]
0.22246616 0.050150782 -0.12023827 -0.07505144 0.05253829 0.05252526 -0.056216575 0.12622441
0.18567069 0.13432622 -0.004155122 -0.14710097 -0.08280916 -0.15821433 -0.1956351 0.008191865
0.10788198 0.14770618 -0.011588756 0.13778658 -0.0773154 -0.12050478 0.070723094 -0.08064829
0.020130916 0.12287365 -0.044145465 0.117048964 0.106721796 0.032784145 0.093786545 0.005090332
-0.12845933 0.09261411 0.08629398 0.05987632 -0.12423519 -0.10275788 -0.104366966 0.18950987
-0.073889874 -0.111396655 -0.0632342 -0.039671976 0.025217619 -0.13046871 0.13585703 -0.02837476
-0.050359603 -0.1403997 0.055648122 -0.07323101 -0.11225875 0.10997234 0.12767632 0.19669114
0.1384397 -0.044583365 -0.06034456 0.06570442 -0.106829785 -0.0063505927 -0.112159036 0.082854755
0.12798066 -0.16430892 0.05438342 -0.14955124 -0.031875975 0.11169626 0.093329966 -0.039125543
-0.0856629 -0.013334852 0.07635627 0.07196311 0.06535433 0.044749115 -0.19846334 -0.1584373
0.1703018 -0.15492685 0.009086485 0.0047305957 0.0986512 0.07437927 0.14964738 -0.06669097
-0.10238865 -0.10776723 -0.00815726 -0.0947669 -0.048055355 -0.123942375 0.0033871818 0.18482265
-0.04003224 -0.08622945 0.1414557 0.12713216 -0.0038644262 0.052652802 0.059932847 0.017252605
0.10888817 -0.06870893 0.077397615 0.111672774 0.1367288 -0.04230207 0.097815305 -0.030288288
-0.1350855 0.11458383 -0.032902937 0.15159935 -0.043851487 -0.18354404 0.20090097 0.043196175
0.09608252 0.123487 -0.13615006 0.0043506715 -0.15668508 0.15687898 -0.111020125 0.044381265
-0.04279047 -0.18122597 0.03764295 -0.113971464 -0.034290466 -0.05669419 0.056611024 0.008766307
0.08344765 0.08634104 0.07548018 0.08711117 -0.0214879 -0.012672941 0.020270132 0.04981353
0.013510387 0.11322365 -0.16222389 0.11677105 0.026853926 0.054260787 0.041183457 0.09390517
-0.12187481 -0.15568812 -0.12946077 -0.17307822 0.21602707 -0.037778746 0.028332217 0.015209117
-0.036261044 0.062269524 0.22110024 0.19016756 -0.06641199 -0.077253714 0.0991488 -0.13405868
-0.15497814 0.15990485 0.18477845 0.061143845 -0.11652679 -0.03569766 0.018472865 0.019980378
0.105865605 0.024852838 -0.03899647 0.02219418 -0.14665854 -0.15761337 0.21107976 0.117631204
0.046077944 0.15153746 0.082389206 0.12316564 0.07559436 -0.010659134 0.118295066 -0.09450741
-0.070140086 0.05638137 0.20043384 -0.049973264 -0.011634731 -0.15219286 -0.03315234 -0.12212634
-0.1252784 0.056568716 0.039135057 -0.016803065 -0.07780656 -0.10760592 0.16325097 0.16291863
0.031329896 -0.10956004 -0.08752903 -0.044497106 0.044137657 -0.123603866 0.17070423 0.16402015
0.075705774 -0.12020805 -0.15586743 0.16395012 0.03783721 -0.03636172 -0.018765463 -0.004394132
0.00840505 -0.084336564 -0.12542544 0.044337574 -0.004617588 -0.15626952 0.059445657 0.041300487
0.18127337 -0.02636865 -0.06296706 -0.09839525 0.13963798 -0.050636597 0.019245239 -0.1290782
-0.170526 0.0364615 0.0068257023 0.08602167 0.014977328 0.17420363 0.08675534 -0.06641893
-0.0069839014 -0.011554821 -0.07391387 0.0136976605 -0.037981756 -0.105043516 -0.05510722 -0.0903841
00000000: 2bce 633e e86a 4d3d 7b3f f6bd 92b4 99bd
00000010: 6432 573d ba24 573d 5a43 66bd f940 013e
00000020: 7520 3e3e d08c 093e b127 88bb a3a1 16be
00000030: d997 a9bd f002 22be 9154 48be 2c37 063c
00000040: 3af1 dc3d 4a40 173e c4de 3dbc ed17 0d3e
00000050: 8957 9ebd 36cb f6bd 45d7 903d ee2a a5bd
00000060: 97e9 a43c 2ea5 fb3d e0d1 34bd 5eb7 ef3d
00000070: f590 da3d ab48 063d 2913 c03d cdcc a63b
00000080: d88a 03be 77ac bd3d e6ba b03d df40 753d
00000090: 056f febd b972 d2bd 59be d5bd e00e 423e
000000a0: 9353 97bd ee23 e4bd ef80 81bd 157f 22bd
000000b0: 2e95 ce3c 9799 05be 1b1e 0b3e 2f72 e8bc
000000c0: df45 4ebd f0c4 0fbe 49ef 633d 24fa 95bd
000000d0: eae7 e5bd 2e39 e13d 95bd 023e 6769 493e
000000e0: 23c3 0d3e 0c9d 36bd db2b 77bd 0a90 863d
000000f0: 93c9 dabd a218 d0bb a3b3 e5bd c1af a93d
00000100: 5d0d 033e 9940 28be 26c1 5e3d f623 19be
00000110: 6290 02bd 02c1 e43d c823 bf3d 1b42 20bd
00000120: 0870 afbd 6c7a 5abc ad60 9c3d 6561 933d
00000130: 7ed8 853d d94a 373d f939 4bbe 633d 22be
00000140: 9863 2e3e 25a5 1ebe 7bdf 143c 1d03 9b3b
00000150: a409 ca3d 2954 983d 2a3d 193e 4695 88bd
00000160: 24b1 d1bd 11b5 dcbd 07a6 05bc 2615 c2bd
00000170: b1d5 44bd 80d5 fdbd 7bfb 5d3b 2642 3d3e
00000180: d9f8 23bd 1199 b0bd c3d9 103e ef2e 023e
00000190: 5042 7dbb 77aa 573d 257c 753d 5655 8d3c
000001a0: c300 df3d 44b7 8cbd a482 9e3d b2b4 e43d
000001b0: a202 0c3e ef44 2dbd 6453 c83d 251f f8bc
000001c0: da53 0abe edaa ea3d 3bc5 06bd dc3c 1b3e
000001d0: 9e9d 33bd f8f2 3bbe fcb8 4d3e 79ee 303d
000001e0: eac6 c43d c1e6 fc3d ec6a 0bbe 1490 8e3b
000001f0: 0e72 20be e2a4 203e 855e e3bd 21c9 353d
00000200: 0f45 2fbd 4d93 39be 7e2f 1a3d df69 e9bd
00000210: 2974 0cbd 2b38 68bd f6e0 673d 8ea0 0f3c
00000220: 9ae6 aa3d 92d3 b03d 5a95 9a3d 5767 b23d
00000230: 6407 b0bc 2ba2 4fbc 8c0d a63c 4609 4c3d
00000240: ac5a 5d3c cde1 e73d 051e 26be a925 ef3d
00000250: c4fc db3c 8f40 5e3d fcaf 283d 5b51 c03d
00000260: 8099 f9bd b56c 1fbe 5d91 04be 6b3b 31be
00000270: 3336 5d3e e3bd 1abd f718 e83c a92f 793c
00000280: 7686 14bd 540e 7f3d 1a68 623e 49bb 423e
00000290: 0203 88bd 3237 9ebd 870e cb3d ae46 09be
000002a0: 97b2 1ebe 19be 233e 9036 3d3e f871 7a3d
000002b0: 99a5 eebd b637 12bd 6854 973c e4ad a33c
000002c0: 11d0 d83d 2e98 cb3c c3ba 1fbd 92d0 b53c
000002d0: a82d 16be 6665 21be 4b25 583e a1e8 f03d
000002e0: 3abc 3c3d a32c 1b3e acbb a83d 443e fc3d
000002f0: 37d1 9a3d a6a3 2ebc af44 f23d 1a8d c1bd
00000300: 9ba5 8fbd 27f0 663d 873e 4d3e c4b0 4cbd
00000310: 999f 3ebc 72d8 1bbe c0ca 07bd 601d fabd
00000320: fb48 00be 99b4 673d 154c 203d 95a6 89bc
00000330: 0c59 9fbd 7e60 dcbd 432b 273e 24d4 263e
00000340: c753 003d 0461 e0bd 6c42 b3bd 9942 36bd
00000350: b0c9 343d 0624 fdbd 17cd 2e3e e6f4 273e
00000360: a10b 9b3d a32f f6bd b69b 1fbe 8ae2 273e
00000370: 31fb 1a3d 07f0 14bd 07ba 99bc a7fc 8fbb
00000380: 56b5 093c a6b8 acbd 876f 00be 519b 353d
00000390: 234f 97bb 1e05 20be 4a7d 733d b32a 293d
000003a0: ba9f 393e 1103 d8bc e0f4 80bd 7383 c9bd
000003b0: 42fd 0e3e 5268 4fbd 31a8 9d3c 132d 04be
000003c0: 5e9e 2ebe a758 153d 24aa df3b 212c b03d
000003d0: 7763 753c 7062 323e c9ac b13d a606 88bd
000003e0: 36d9 e4bb 6f50 3dbc 2860 97bd 276c 603c
000003f0: c292 1bbd 0e21 d7bd 1cb8 61bd 4d1b b9bd

blocks.0.fcn_layer.bias f4 [32]
0.102018766 0.0015979597 -0.05946111 -0.100002736 0.10039452 -0.00087467616 0.005518412 0.125116
0.07008792 -0.09140213 -0.13543846 -0.02914862 0.04379745 -0.10023022 0.16819035 0.012024222
0.01272467 -0.09031324 0.15342394 -0.0032371094 -0.14272082 -0.05885596 -0.12304757 -0.09555262
0.011000481 -0.073494576 -0.11447272 0.07773109 -0.14384252 0.016068058 -0.106348746 0.0998745
00000000: 37ef d03d a172 d13a 7e8d 73bd 3cce ccbd
00000010: a49b cd3d 864a 65ba ccd3 b43b 691e 003e
00000020: 418a 8f3d 0a31 bbbd 61b0 0abe 16c9 eebc
00000030: f464 333d 8045 cdbd 173a 2c3e 3e01 453c
00000040: 227b 503c 26f6 b8bd 2a1b 1d3e af25 54bb
00000050: 6825 12be f212 71bd 5d00 fcbd 18b1 c3bd
00000060: 5d3b 343c 5384 96bd ac70 eabd 7a31 9f3d
00000070: 744b 13be 29a1 833c 5fcd d9bd 008b cc3d

blocks.0.layer_norm.weight f4 [32]
1.233583 0.94779557 1.2529005 1.0859189 1.2525095 1.0887 1.0506324 1.2479447
1.0062102 1.0320214 1.0628923 0.9551944 1.2033772 1.1990691 1.2510396 1.2299044
1.0745195 0.9712953 1.0886871 0.95255816 1.1008164 1.2070013 1.220806 1.0107802
0.9589772 1.0442685 1.2102288 0.9627596 1.0022389 1.045825 1.0566847 0.9940701
00000000: 0ce6 9d3f bba2 723f 0b5f a03f 64ff 8a3f
00000010: 3b52 a03f 865a 8b3f 1f7b 863f a7bc 9f3f
00000020: 7fcb 803f 4719 843f db0c 883f 9f87 743f
00000030: 4408 9a3f 197b 993f 1122 a03f 826d 9d3f
00000040: db89 893f cfa6 783f 195a 8b3f dada 733f
00000050: 8de7 8c3f 057f 9a3f 5f43 9c3f 3f61 813f
00000060: 887f 753f 97aa 853f c7e8 9a3f 6a77 763f
00000070: 5d49 803f 98dd 853f 7241 873f 617b 7e3f

blocks.0.layer_norm.bias f4 [32]
0.22237675 -0.04533 0.23242216 0.058382228 0.22827016 0.05821764 0.049554043 0.22998703
0.0047941646 0.028457392 0.048947897 -0.04235791 0.21079138 0.21220008 0.22919178 0.2226031
0.06079717 -0.030410366 0.07181176 -0.032782592 0.046867087 0.21355556 0.22251008 0.006539622
-0.028673466 0.02533374 0.21699055 -0.03246308 0.0037840733 0.053079303 0.05797071 -0.0037766076
00000000: bbb6 633e f3ab 39bd 1300 6e3e 3422 6f3d
00000010: a7bf 693e 9f75 6e3d 2ef9 4a3d b881 6b3e
00000020: 5e18 9d3b 7a1f e93c 977d 483d 7d7f 2dbd
00000030: b2d9 573e fa4a 593e 40b1 6a3e 11f2 633e
00000040: 7406 793d 291f f9bc 0b12 933d 0a47 06bd
00000050: b4f7 3f3d 4fae 5a3e afd9 633e 534a d63b
00000060: 9ee4 eabc b488 cf3c c532 5e3e 02f8 04bd
00000070: 37fe 773b af69 593d b272 6d3d f680 77bb

last_layer.weight f4 [1, 32]
-0.32752234 0.01159836 -0.3316215 0.08660943 -0.34111798 0.2611043 0.061942264 -0.31624988
0.04172103 0.029073287 0.22814685 -0.06942877 -0.35489458 -0.3500637 -0.32966167 -0.3247406
0.22865446 -0.055869903 0.0761583 0.019320795 0.12218526 -0.33865324 -0.35577327 0.12044236
-0.01538847 0.039334226 -0.33428788 0.009799033 0.022883484 0.10083591 0.18137972 -0.03719071
00000000: 02b1 a7be 0c07 3e3c 4bca a9be 4960 b13d
00000010: 04a7 aebe 76af 853e 2cb7 7d3d 81eb a1be
00000020: ace3 2a3d 1a2b ee3c 549f 693e ac30 8ebd
00000030: beb4 b5be 8d3b b3be 6ac9 a8be 6644 a6be
00000040: 6524 6a3e d7d7 64bd e2f8 9b3d a546 9e3c
00000050: 443c fa3d f563 adbe ea27 b6be 7caa f63d
00000060: ec1f 7cbc ed1c 213d c827 abbe 208c 203c
00000070: 2576 bb3c 0f83 ce3d 9bbb 393e 4955 18bd
