openwakeword/hey_computer.tflite (tflite, 206748 bytes, 9 tensors)

Const_1 f4 [32]
0	0xbc69c766	-0.014268732
1	0x3c85ad1c	0.016317897
2	0x3c9abc80	0.018888712
3	0xbb559c13	-0.0032594248
4	0x3bdad985	0.0066787624
5	0xbc9e3ca5	-0.019316027
6	0xbc691872	-0.01422702
7	0xbbb56e81	-0.0055368547
8	0x39ed1bcf	0.00045224882
9	0x3c5d4cc9	0.013507077
10	0xbce04d8f	-0.027380733
11	0xbc2f8bc1	-0.010714472
12	0x3c8f4af5	0.017491797
13	0x3bd03e33	0.006355071
14	0xbc43d6e5	-0.01195309
15	0xbcbd9330	-0.023141474
16	0xbcb8c494	-0.022554673
17	0x3cf91ef8	0.030410275
18	0x3cc937a5	0.024562666
19	0x3c9ac433	0.018892383
20	0xbcb98e73	-0.022650933
21	0x3c9ffca0	0.01952964
22	0x3ce7f5df	0.028315483
23	0xbc522944	-0.012827221
24	0xbc9b1d5a	-0.018934894
25	0xbc85fc5a	-0.016355682
26	0xbbac6b21	-0.005261794
27	0xbb2cea71	-0.0026384855
28	0x3b86aaeb	0.0041097305
29	0xbc20e5e7	-0.009820438
30	0xbca1726a	-0.019707877
31	0x3c3a2ac8	0.011362739

Const_2 f4 [32]
0	0x3f84a2b9	1.0362159
1	0x3f765ef4	0.96238637
2	0x3f739e36	0.95163286
3	0x3f74536e	0.95439804
4	0x3f801b7b	1.0008386
5	0x3f7d0dd4	0.98849225
6	0x3f871de0	1.0555992
7	0x3f76ae60	0.96359825
8	0x3f81cbe2	1.0140345
9	0x3f7c4ba2	0.98552907
10	0x3f7ec825	0.99524146
11	0x3f821b44	1.0164571
12	0x3f7f4e19	0.9972854
13	0x3f7a10dd	0.9768198
14	0x3f7dda18	0.9916091
15	0x3f7d6d4e	0.9899491
16	0x3f7d9b46	0.99065053
17	0x3f82a4bd	1.0206524
18	0x3f77fe4a	0.9687239
19	0x3f72216a	0.94582236
20	0x3f7d79ed	0.9901417
21	0x3f7902cc	0.9726989
22	0x3f86fb8e	1.0545518
23	0x3f84bdbc	1.0370402
24	0x3f7a2860	0.9771786
25	0x3f7ea751	0.99474055
26	0x3f8659ae	1.0496118
27	0x3f7aa325	0.9790519
28	0x3f7e12ab	0.99247235
29	0x3f7c4c57	0.98553985
30	0x3f7b78f5	0.9823144
31	0x3f77ee69	0.9684816

Const_3 f4 [32]
0	0x3d4dc56b	0.0502371
1	0xbc20931b	-0.009800698
2	0x3cd5ff2f	0.026122658
3	0xbc29ddbb	-0.010367806
4	0xba9d5fa3	-0.0012006651
5	0xbc97ca4e	-0.018529084
6	0x3c573a50	0.013136461
7	0x3c8cd440	0.017191052
8	0x3c4f0853	0.012636262
9	0x3ce1ec68	0.027578548
10	0xb91d5a5e	-0.00015006351
11	0x3c259fe5	0.010108923
12	0xbb6ace0d	-0.0035828382
13	0xbc670d79	-0.014102333
14	0x3bfceed4	0.0077189
15	0xbc5bd33b	-0.0134170605
16	0xbbd00234	-0.006347919
17	0x3c865cbb	0.01640164
18	0xbab1adb7	-0.0013555799
19	0x3b93f72b	0.0045155487
20	0xbc6972b7	-0.014248542
21	0xbca188af	-0.019718496
22	0x3ca8b5f9	0.020594584
23	0x3c6fefe0	0.014644593
24	0xbb952d58	-0.0045525245
25	0xbca6f4ad	-0.020380342
26	0x3be92199	0.007114601
27	0xbbda0752	-0.0066537047
28	0xbca66bdd	-0.020315105
29	0xbb642830	-0.0034813993
30	0xbcb4521d	-0.02201181
31	0xbc151c45	-0.009100978

Const_5 f4 [32]
0	0x3cef11bb	0.02918326
1	0x3d8a6704	0.0675793
2	0xbdd308ce	-0.10304414
3	0xbd11647d	-0.035496224
4	0xbe05a507	-0.13051234
5	0x3db01359	0.0859744
6	0xbcd71ad6	-0.026257914
7	0xbc586c19	-0.013209366
8	0x3c5c20de	0.0134355705
9	0x3e3d1555	0.18465169
10	0xbd14fe70	-0.036375463
11	0x3db77ccc	0.0895935
12	0xbd34d4ce	-0.04414826
13	0xbe2c65e6	-0.16835746
14	0xbd89f196	-0.06735532
15	0xbdf71734	-0.120649725
16	0xbda2de84	-0.07952598
17	0x3dc0819b	0.0939972
18	0x3df3f202	0.11911394
19	0xbe289503	-0.16463093
20	0x3d2b7bf8	0.041866273
21	0x3da4559b	0.080241404
22	0x3e3164a6	0.1732355
23	0x3d8736a8	0.06602222
24	0x3d8de4b2	0.06928386
25	0x3e02e984	0.12784392
26	0x3da67c3d	0.08129165
27	0x3d97ff93	0.07421794
28	0x3e451bb0	0.19248843
29	0xbe264b84	-0.16239744
30	0xbd97bd2a	-0.07409127
31	0xbaeb5db0	-0.0017956998

Const_6 f4 [32]
0	0x3f8985ca	1.0743954
1	0x3f89e0bf	1.0771712
2	0x3f5e48c3	0.86829776
3	0x3f8a0141	1.0781633
4	0x3f70fc31	0.94134814
5	0x3f9891a1	1.1919442
6	0x3f7bc446	0.98346364
7	0x3f807468	1.0035524
8	0x3f85a9f5	1.0442492
9	0x3f90f327	1.1324204
10	0x3f85de66	1.0458496
11	0x3f8e7d02	1.1131899
12	0x3f8282b1	1.0196134
13	0x3fa30435	1.2735659
14	0x3fa16234	1.2608094
15	0x3fa0d927	1.256627
16	0x3f9cdc49	1.2254726
17	0x3f7302ed	0.9492634
18	0x3fa5eb4f	1.2962435
19	0x3f8a1816	1.07886
20	0x3faafb2f	1.3357905
21	0x3f868754	1.0510049
22	0x3fabfa4c	1.343576
23	0x3fa5f28f	1.2964648
24	0x3f79e397	0.976129
25	0x3f9872f9	1.1910087
26	0x3faff70c	1.3747268
27	0x3f8923ab	1.071401
28	0x3f91eff6	1.1401355
29	0x3f913dc9	1.134698
30	0x3fb7b6f1	1.4352704
31	0x3f8a14a7	1.0787553

Const_7 f4 [32]
0	0x3d30bf66	0.04315128
1	0x3d142dad	0.036176372
2	0xbd9db27f	-0.07700061
3	0x3d955440	0.0729146
4	0xbd92f1fe	-0.071750626
5	0x3e28b8ca	0.16476741
6	0xbc0721fe	-0.00824785
7	0x3c69ddcb	0.014274071
8	0x3d34beb8	0.044127196
9	0x3dc925d6	0.0982167
10	0x3caf3ce1	0.021391334
11	0x3db448b3	0.08802929
12	0x3d154e34	0.036451533
13	0x3e960962	0.29304034
14	0x3e8758f3	0.2643505
15	0x3e880294	0.26564467
16	0x3e7d6e3e	0.24749085
17	0xbda5929b	-0.080846034
18	0x3e945079	0.28967646
19	0x3d086f0e	0.033309035
20	0x3e97b24b	0.29628214
21	0x3d2066c8	0.03916052
22	0x3e9b8b7a	0.3037985
23	0x3e8f8efb	0.28038773
24	0x3b9bb118	0.004751336
25	0x3e079f34	0.13244325
26	0x3ea15c60	0.3151579
27	0x3d1d12a4	0.038347855
28	0x3e081ef8	0.13293064
29	0x3df66789	0.120314665
30	0x3eae8023	0.34082136
31	0x3d2c43dc	0.042056903

MatMul f4 [32, 1536]
0	0x3cb9058e	0.022585656
1	0x3b5f3457	0.0034058297
2	0x3bc8591e	0.006114139
3	0xbc5a74b1	-0.013333485
4	0xbc1c3e63	-0.0095363585
5	0x3c8dda37	0.017315967
6	0x3c02ceed	0.007983905
7	0x3cb033d5	0.02150909
8	0xbbdbe8fc	-0.0067111235
9	0x39a48871	0.00031382174
10	0xbb1435d9	-0.0022615104
11	0xbbd415d4	-0.0064723287
12	0x3c01bfcd	0.007919264
13	0x3c1ef61b	0.009702231
14	0xbc84682d	-0.016162956
15	0xbc4cf00c	-0.0125084035
16	0xb9af3e61	-0.00033425077
17	0x3c74c96f	0.014940604
18	0x3d2954e0	0.04134071
19	0xbb989ae9	-0.0046571386
20	0xbc3a3aab	-0.011366527
21	0x3bf30d3b	0.0074173487
22	0xbb98e0a7	-0.0046654525
23	0xbabb3d57	-0.0014285248
24	0xbb8869b4	-0.0041629914
25	0x3ad2fad2	0.0016096479
26	0x3c9a0e2e	0.01880559
27	0xbc428717	-0.011873028
28	0xbb65b39f	-0.003504969
29	0x3b88781c	0.004164709
30	0xbb99f8d9	-0.0046988544
31	0xbb71affb	-0.0036878574
32	0xbc3b556b	-0.011433939
33	0xbc536ea3	-0.012904796
34	0xbc40417c	-0.011734363
35	0xbbcbf81c	-0.0062246453
36	0x3bef60d1	0.0073052426
37	0x3c1c195b	0.00952753
38	0x3cf5b613	0.029994046
39	0x3c57acec	0.013163786
40	0x3c87c44b	0.016573092
41	0xbce3216b	-0.027725896
42	0x3b8e2976	0.0043384386
43	0xbc907498	-0.017633721
44	0xbd10ed16	-0.035382353
45	0xbca61838	-0.02027522
46	0xbc6e07fc	-0.014528271
47	0x3cc2d54f	0.023783354
48	0x3b256ccb	0.0025241848
49	0x3cdac3de	0.026704725
50	0xbc8d5953	-0.017254507
51	0xbae612d6	-0.0017553221
52	0xbcb96068	-0.022628978
53	0x3c9da53d	0.01924383
54	0xbc90b5b4	-0.017664768
55	0x3bf3b430	0.0074372515
56	0x3acbca7e	0.0015548018
57	0xbb9af46d	-0.004728845
58	0xbc4c8481	-0.012482763
59	0xbc9886f4	-0.018619038
60	0x3d025603	0.03182031
61	0xbcd16d89	-0.025564926
62	0x3d1557e4	0.036460772
63	0xbbd525ec	-0.006504765
64	0xbbe8f9cc	-0.0071098562
65	0x3bf3e249	0.007442747
66	0xbd057641	-0.03258348
67	0xbc226fdb	-0.009914364
68	0xba7cb6ad	-0.0009640258
69	0xbcb469de	-0.022023138
70	0x3aaca143	0.0013170618
71	0x3bd3d56b	0.0064646504
72	0x3c6828ee	0.014169915
73	0x3ca0e64a	0.01964106
74	0x3b8b89ab	0.0042583547
75	0xbadd7217	-0.0016894963
76	0xbbc865ed	-0.006115666
77	0xbcbc354c	-0.022974633
78	0xbc6b1c7c	-0.014350053
79	0xbbb68ff3	-0.0055713593
80	0x3c9f2911	0.019428762
81	0x3b2c26b2	0.0026268181
82	0x3c26ffcf	0.010192825
83	0x3c74b559	0.014935815
84	0x3bc5c36f	0.0060352604
85	0xbc006e3a	-0.00783878
86	0xbb9839f9	-0.0046455828
87	0xbc70d092	-0.014698165
88	0xbcfefc3b	-0.031126132
89	0xbc88413e	-0.016632672
90	0x3ca05ef4	0.019576527
91	0xbc796226	-0.015221154
92	0x3be4d101	0.006982923
93	0x3c2048d4	0.009782989
94	0x3bb3d8b8	0.0054884814
95	0xbc826ec8	-0.015921965
96	0x3bf57216	0.0074904067
97	0xbc24938c	-0.010044944
98	0xbb80896f	-0.0039226334
99	0x3c136579	0.008996361
100	0x3c57ee91	0.013179437
101	0x3be365b4	0.006939614
102	0xb8e3703b	-0.00010845108
103	0x3ce88945	0.028385768
104	0xbbb25283	-0.005441965
105	0x3cb3ca81	0.021947147
106	0x3bb2a51e	0.0054518124
107	0xbc9622ef	-0.018327205
108	0xbcac4d09	-0.021032827
109	0xba089e6c	-0.0005211595
110	0x3c757b84	0.014983062
111	0xbc575d64	-0.013144825
112	0x3c47e746	0.012201136
113	0x3c0e1917	0.008672974
114	0x3857cc18	5.145007e-05
115	0x3bd7b1ad	0.00658246
116	0xbc22153b	-0.009892757
117	0x3b6732b6	0.0035278029
118	0x3c3b9dab	0.011451165
119	0xbadbb00a	-0.0016760838
120	0x3d33c52b	0.043889206
121	0x3cc9a49a	0.024614621
122	0xbbc1e908	-0.005917672
123	0x3c427739	0.011869245
124	0x3bb0b031	0.0053920974
125	0xbb3cadb2	-0.0028790054
126	0x3c5301f8	0.012878887
127	0x3ba03db1	0.0048901667
128	0xbc3e9373	-0.011631834
129	0x3ab61788	0.0013892511
130	0x3ba43d35	0.0050121793
131	0xbc8d47e4	-0.017246194
132	0xbb39a95c	-0.0028329706
133	0x3b599876	0.0033202446
134	0xbc095f45	-0.00838453
135	0xbb14af91	-0.0022687654
136	0xbabfded9	-0.0014638557
137	0x3c793071	0.015209303
138	0xbc881303	-0.016610628
139	0xbc596b3c	-0.013270196
140	0x3bb903e3	0.0056462153
141	0x3c37d45e	0.011220066
142	0x3b4fff84	0.0031737993
143	0x3bd025e3	0.0063521727
144	0xbcc13438	-0.02358447
145	0xbc05784d	-0.008146358
146	0xbbe0a97f	-0.006856143
147	0xbc5614e7	-0.013066507
148	0xbc240312	-0.010010498
149	0xbb9eb8b6	-0.0048437966
150	0x3b3f1df3	0.0029162138
151	0xbb79013a	-0.0037995116
152	0xbb0e1229	-0.0021678305
153	0x3b1c0dd4	0.0023811953
154	0x3c5eb541	0.013593019
155	0xbb95b8d7	-0.0045691538
156	0x3d2ac51d	0.041691888
157	0x3cb1ee88	0.021720186
158	0x3d0029f6	0.031290017
159	0xbcaf0d92	-0.021368776
160	0xbb925ee6	-0.004466879
161	0x3c4dbcd1	0.012557224
162	0xbcafe50c	-0.021471523
163	0x3c0183f6	0.007904997
164	0xbcd8b8e3	-0.026455348
165	0xbbad306b	-0.005285313
166	0x3d013008	0.031539947
167	0x3c9ba36c	0.018998824
168	0x3ccff32a	0.025384504
169	0x3cdad3ee	0.026712384
170	0x3aef5b59	0.0018261477
171	0xba6971f5	-0.00089052255
172	0xbbc25548	-0.0059305765
173	0xbc45a8c2	-0.012064161
174	0x3c7cd273	0.015431034
175	0x3b6e9276	0.0036403215
176	0xbc2e50fc	-0.010639425
177	0xbbc10d76	-0.0058914972
178	0x3bdd5fb6	0.0067557944
179	0x3996cc3e	0.00028762402
180	0x3cca7c06	0.024717342
181	0xbb02aec7	-0.0019940601
182	0x3b4ed068	0.0031557325
183	0x3a9b19e5	0.0011833279
184	0xbcb45bfe	-0.022016522
185	0xbcaf534f	-0.02140203
186	0x3bf3d4e3	0.0074411496
187	0xbb816234	-0.0039484743
188	0x3c2e1877	0.01062595
189	0xbc547a45	-0.012968604
190	0x3d02e4b0	0.031956375
191	0x3bcfd293	0.006342241
192	0xba872c62	-0.001031291
193	0x3c86609c	0.016403489
194	0xbc02b1a8	-0.007976927
195	0x3cb7e40f	0.022447614
196	0xba6951c5	-0.0008900429
197	0xbc1fa173	-0.009743082
198	0xbb575e14	-0.0032862471
199	0x3cb824d9	0.022478508
200	0xbc4c001c	-0.012451198
201	0xbbae2243	-0.005314143
202	0xbbfe0110	-0.0077515915
203	0xbc2564cd	-0.010094834
204	0x3c4cc956	0.012499174
205	0x3c8ca25b	0.01716726
206	0x3c4e4885	0.012590532
207	0xbcb0edfd	-0.021597857
208	0x3b8000b1	0.0039063324
209	0x3caed50a	0.02134182
210	0xba47ef7a	-0.00076269323
211	0x3c513f18	0.01277139
212	0xbcfc3be1	-0.030790271
213	0x3bcb40f5	0.006202812
214	0xbc4d2764	-0.0125215985
215	0xbbe43260	-0.006964013
216	0x3b5d39e9	0.003375644
217	0x3c69ecf8	0.014277689
218	0x3afcc810	0.0019285697
219	0xbc739e12	-0.01486923
220	0x3cf92e03	0.030417448
221	0xbc80144a	-0.015634675
222	0xbb8b5837	-0.0042524594
223	0xbc0cd62d	-0.008595985
224	0xbc99c9b1	-0.018772932
225	0x3bebbfe7	0.0071945074
226	0x3b08e6f1	0.0020889605
227	0x3ce78386	0.028260957
228	0xbc3d10a3	-0.011539611
229	0x3bb98fa4	0.0056628752
230	0x3cea2ee0	0.028586805
231	0x3b551bb7	0.003251774
232	0x3c062132	0.008186625
233	0x3c3cac2f	0.011515661
234	0xbc53f646	-0.012937134
235	0xbb46102e	-0.0030222046
236	0xbc23f682	-0.0100075025
237	0x3c5a5356	0.013325533
238	0xbc3982c3	-0.01132268
239	0x3c91a427	0.01777847
240	0x3b75aa74	0.0037485631
241	0x3c176412	0.009240167
242	0xbc0b44d8	-0.0085003
243	0x3bcefa4c	0.006316459
244	0xbca4bd63	-0.020109838
245	0x3bd04996	0.0063564284
246	0x3c8000ed	0.015625441
247	0x3c7294d8	0.014805995
248	0xbc9ab724	-0.018886156
249	0x3b866c9c	0.0041023027
250	0x3bc1e10e	0.005916721
251	0xbd042ada	-0.03226743
252	0x3c87f0c8	0.016594306
253	0x3c71d1d8	0.014759503
254	0x3c0544bc	0.008134063
255	0xbc76eea3	-0.015071544

MatMul_1 f4 [32, 32]
0	0x3e4033ed	0.18769808
1	0x3cba1b01	0.022717955
2	0xbe2c6226	-0.16834316
3	0xbc92af54	-0.017905869
4	0x3db0bc02	0.0862961
5	0x3e090809	0.13381971
6	0x3e1ace29	0.15117706
7	0x3e0fd4e9	0.14046063
8	0x3dd01ff4	0.101623446
9	0x3e1f30ce	0.15545961
10	0x3e2a5c3a	0.16636744
11	0x3ce74d44	0.028235085
12	0x3d80b0c1	0.06283713
13	0x3d88402c	0.06652865
14	0xbe18ee92	-0.14934757
15	0xbd21d421	-0.039508943
16	0xbdf612cd	-0.12015305
17	0x3e2d1d3e	0.16905686
18	0x3e219a88	0.15781605
19	0xbcb75542	-0.022379521
20	0x3dbab38c	0.09116277
21	0x3ce826cb	0.02833881
22	0xbe22e659	-0.15908183
23	0x3dbff587	0.093730025
24	0xbdbfd2d4	-0.09366384
25	0xbc969077	-0.018379433
26	0xbe2b79e1	-0.16745712
27	0x3d725102	0.059159286
28	0x3df30353	0.118658684
29	0xbcf3e463	-0.02977199
30	0x3df27842	0.118393436
31	0x3b6ebaa9	0.0036427176
32	0x3e1f6fcf	0.15569995
33	0x3d1c7a35	0.038202483
34	0x3d94499b	0.07240602
35	0x3cdea1e1	0.0271768
36	0x3e182cbb	0.14860813
37	0x3db36980	0.08760357
38	0x3da4a191	0.08038629
39	0x3b37f637	0.002807034
40	0x3e457ea0	0.19286585
41	0xbce032eb	-0.02736803
42	0xbdb9d98d	-0.09074698
43	0xbd913aa4	-0.07091263
44	0x3e2db1e7	0.16962396
45	0xbe22445f	-0.15846394
46	0xbd1e14aa	-0.038593926
47	0x3e012e07	0.12615214
48	0xbc6ee9c2	-0.014582099
49	0xbdb54a55	-0.08852068
50	0x3e22bfef	0.1589353
51	0x3dc9e072	0.09857263
52	0xbd4fc62e	-0.05072611
53	0xbb0ce643	-0.0021499551
54	0xbb9e0677	-0.004822548
55	0x3d5b53ee	0.05354684
56	0xbcfa454e	-0.030550625
57	0xbd7a2eb9	-0.061079714
58	0xbdefe2e9	-0.117132016
59	0x3e142fdd	0.14471383
60	0xbdd0398e	-0.10167228
61	0x3e18b5ad	0.14913054
62	0x3df17a8d	0.11790953
63	0xbd30e25c	-0.043184623
64	0xbe26d144	-0.16290766
65	0xbc2ab9a6	-0.010420239
66	0x3c857472	0.016290877
67	0x3da9abde	0.08284734
68	0xbbf10f2f	-0.0073565464
69	0xbd3ec422	-0.046573766
70	0x3da5fb31	0.081045516
71	0xbe04df7e	-0.1297588
72	0x3dd8e80c	0.105911344
73	0x3d39667e	0.04526376
74	0xbdeb4bd3	-0.11489072
75	0x3be99321	0.007128135
76	0x3e16a71a	0.14712182
77	0x3db013d8	0.08597535
78	0xbd861715	-0.06547371
79	0x3e17aeb7	0.14812742
80	0xbd439ade	-0.047755115
81	0xbb9d1d70	-0.004794769
82	0x3e1e2af1	0.15446068
83	0xbe17b935	-0.14816745
84	0xbd52358f	-0.05132061
85	0x3da2b9e6	0.079456136
86	0x3d79a504	0.060948387
87	0x3e3ceb22	0.18449071
88	0x3c8565ae	0.016283836
89	0xbe18f045	-0.14935406
90	0x3cd8853b	0.026430717
91	0xbdd5e9f4	-0.10445014
92	0xbd594fe4	-0.053054705
93	0xbe06e817	-0.13174473
94	0xbdc2881e	-0.094986185
95	0xbe1d6eb6	-0.15374264
96	0x3d268772	0.040656514
97	0x3df482ae	0.11938988
98	0x3d5fd5e3	0.054647338
99	0x3d007dae	0.031369857
100	0x3e1326b8	0.14370239
101	0xbdaf3294	-0.08554569
102	0xbd668927	-0.056283142
103	0xbe17c59b	-0.14821474
104	0xbde26a05	-0.11055378
105	0x3c2c5635	0.0105186
106	0x3d8f50db	0.06997844
107	0xbe07822b	-0.13233249
108	0x3e159617	0.14608036
109	0x3d5cf3fd	0.053943623
110	0xbe030439	-0.1279458
111	0x3d63b42d	0.05559175
112	0x3dd925be	0.10602902
113	0xbe02114f	-0.12701915
114	0x3e193f2d	0.14965506
115	0x3d562c93	0.052288603
116	0xbe058606	-0.13039407
117	0xbdb4d966	-0.08830528
118	0xbc3d006e	-0.011535747
119	0x3e224045	0.1584483
120	0xbe00bfae	-0.1257312
121	0xbd9f2d03	-0.07772257
122	0x3dff9891	0.124802716
123	0x3e060d3c	0.13090986
124	0xbdc2ba5c	-0.095082015
125	0x3bac91f7	0.005266424
126	0x3e17e936	0.14835057
127	0xbcd56824	-0.026050635
128	0x3da1bbae	0.07897125
129	0x3db269f1	0.08711613
130	0xbd1d45f2	-0.038396783
131	0x3e1aa482	0.15101817
132	0xbe0fa264	-0.14026791
133	0xbe371547	-0.1787921
134	0x3cc54e0c	0.024085067
135	0xbda2cc0f	-0.07949077
136	0x3dbea970	0.093096614
137	0x3e0b52e7	0.13605843
138	0xbe098c2d	-0.13432379
139	0xbcd64839	-0.026157485
140	0xbda10170	-0.07861602
141	0xbe1e6b50	-0.15470624
142	0x3e29e43e	0.16590974
143	0xbc005f76	-0.00783526
144	0xbda0bfcc	-0.07849082
145	0xbd8dfada	-0.06932612
146	0xbdeed4ae	-0.11661659
147	0x3dbd36a0	0.092389345
148	0x3c4d1f4d	0.01251967
149	0x3e0b14e3	0.13582186
150	0xbdc5cb72	-0.09657945
151	0xbdcc6cbc	-0.09981677
152	0xbdf402b7	-0.1191458
153	0x3daff739	0.08592076
154	0xbd3313fb	-0.043720227
155	0xbdc76c86	-0.09737496
156	0x3d791f9f	0.06082117
157	0x3d2cf343	0.04222418
158	0xbd75f3ff	-0.060047146
159	0xbd4a83da	-0.04944215
160	0xbdcbe1f2	-0.09955205
161	0x3da2f1b0	0.079562545
162	0xbde34e8b	-0.11098965
163	0xbbf93c0e	-0.007606036
164	0xbde99175	-0.11404697
165	0xbddbd27c	-0.10733506
166	0x3d2319d3	0.03981955
167	0xbe38132c	-0.17976063
168	0x3dd10805	0.10206608
169	0xbd65be0a	-0.05608944
170	0x3dcf1980	0.101122856
171	0x3e0011a8	0.12506735
172	0x3e34cc6f	0.1765611
173	0xbda31108	-0.07962233
174	0xbc48bdb5	-0.012252261
175	0x3c575a05	0.013144021
176	0xbdf3f053	-0.119110726
177	0xbc9dff74	-0.019286849
178	0x3d4ae408	0.049533874
179	0xbb712850	-0.003679771
180	0x3d97f75f	0.07420229
181	0x3e1dd149	0.15411867
182	0xbd1dbdfc	-0.03851126
183	0x3d7a52f7	0.061114278
184	0xbca4d825	-0.020122597
185	0xbd84e641	-0.0648923
186	0xbcebcb51	-0.028783472
187	0x3d82e6c3	0.063916706
188	0x3e34e51c	0.17665523
189	0x3dd6e175	0.10492221
190	0x3e15e9e1	0.14639999
191	0xbdae14f2	-0.08500089
192	0x3d4f79a4	0.050653115
193	0x3d066275	0.03280874
194	0x3e077fb9	0.13232316
195	0xbddf37c2	-0.10899307
196	0xbd703d4a	-0.0586522
197	0x3d7a8f54	0.061171845
198	0x3db02666	0.08601074
199	0x3e185eb6	0.1487988
200	0x3dfc8527	0.12330084
201	0xbd972b4e	-0.073813066
202	0xbdee4009	-0.116333075
203	0xbc2ae2c4	-0.010430042
204	0x3dbc8b9b	0.09206315
205	0xbdd6fb6a	-0.10497172
206	0x3e2fe89e	0.1717858
207	0x3e274b38	0.16337287
208	0xbd3f80f8	-0.046753854
209	0x3da48763	0.080336355
210	0xbe27df8a	-0.16393867
211	0xbd8c277c	-0.068434685
212	0x3e094134	0.1340378
213	0x3e0182e5	0.12647589
214	0xbd80745d	-0.062721945
215	0xbc973340	-0.018457055
216	0xbdfddc68	-0.12395555
217	0xbdc3cc32	-0.095604315
218	0xbd8fccf4	-0.070215136
219	0xbd80319e	-0.06259464
220	0x3d10b65e	0.03533017
221	0x3bac5f5e	0.005260392
222	0xbdab0a6f	-0.083515994
223	0x3aea0a92	0.0017855933
224	0xbd9d06b3	-0.076672934
225	0x3e0c6660	0.13710928
226	0x3c252691	0.010079996
227	0x3e07a8f8	0.1324805
228	0x3de7ae0a	0.11312492
229	0xbdd96d5a	-0.1061656
230	0x3ddfb4d4	0.10923162
231	0x3d60f90e	0.054925017
232	0xbd8e9c79	-0.069634385
233	0x3db350d0	0.08755648
234	0xbdf9c55a	-0.12195845
235	0x3c4cdbe6	0.0125036
236	0xbbf1ecf6	-0.0073829843
237	0x3d438c57	0.04774126
238	0xbb2a5610	-0.0025991239
239	0xbd8707fb	-0.06593319
240	0xbe2ae749	-0.16689791
241	0x3e0570f3	0.13031368
242	0x3de1cae0	0.110250235
243	0xbcadef31	-0.02123222
244	0xbe07cee7	-0.1326252
245	0x3e0383ce	0.12843248
246	0xbe11492a	-0.14188066
247	0xbd510cc8	-0.05103758
248	0xbda909db	-0.08253833
249	0x3c05cce0	0.008166522
250	0xbcbaca8c	-0.02280166
251	0x3df8c8c8	0.12147671
252	0x3e004b37	0.12528692
253	0x3d92393e	0.07139824
254	0x3e1ba195	0.15198357
255	0x3de293c1	0.11063338

MatMul_2 f4 [1, 32]
0	0x3e4e7859	0.20163096
1	0x3e4c8d92	0.1997588
2	0x3bd2b26c	0.006429961
3	0x3da28296	0.079350635
4	0x3d670d23	0.056409013
5	0x3e4277b5	0.18990977
6	0x3cdedaae	0.027203884
7	0xbcb859d0	-0.022503763
8	0x3e2f7cd9	0.1713747
9	0x3e41ce3a	0.18926325
10	0x3d650fdb	0.055923324
11	0x3e47c0e9	0.19507183
12	0xbd752afe	-0.059855454
13	0xbe72a7c4	-0.2369681
14	0xbeaee5d1	-0.3415971
15	0xbea3a906	-0.31964892
16	0xbebc3bd8	-0.36764407
17	0xbd520735	-0.051276404
18	0xbe9610cf	-0.293097
19	0x3df74694	0.120740086
20	0xbea3d5c0	-0.31999016
21	0x3e258f0a	0.16167846
22	0xbea1bfbc	-0.31591594
23	0xbea4d2a4	-0.32191956
24	0xbd2e960c	-0.042623565
25	0x3e4e35a2	0.20137647
26	0xbea4fe8b	-0.3222545
27	0x3dabc21f	0.08386635
28	0x3e56d8a5	0.20981081
29	0x3e879435	0.2648026
30	0xbebb888b	-0.36627612
31	0x3e6bb15e	0.23016879
