openwakeword/hey_eddie.tflite (tflite, 206748 bytes, 9 tensors)

Const_1 f4 [32]
00000000: 4c20 8b3c 8498 903c bd5e 4d3c c8c2 933c
00000010: a593 ad3c 3664 a2bc e24e a2bc 3472 633b
00000020: c263 20bc 9008 7ebc 34e4 823c 1fb9 cabb
00000030: 0404 dfbb a0cc c4bc c331 fa3b 6603 a3bb
00000040: 3693 b03a f07e 78bc d71c b6ba f82b 2abc
00000050: b6b0 ccbc de41 89bc 6365 7a3c f992 75bc
00000060: 7483 b13c 0ba7 b43c 2dd9 a1bc 3f1e b13c
00000070: 55f7 f0bb 1c8f b43b ff03 913c 3df7 663c
0.016983174 0.01765085 0.012534794 0.018037215 0.021188566 -0.019823175 -0.019813005 0.0034705522
-0.009789409 -0.015504971 0.015977956 -0.006186619 -0.0068058986 -0.024023354 0.0076353266 -0.0049747704
0.0013471607 -0.015166983 -0.0013894093 -0.0103864595 -0.024986606 -0.01675504 0.015282962 -0.014988654
0.021669127 0.022052309 -0.019756878 0.021620868 -0.007353703 0.005510224 0.0177021 0.014097032

Const_2 f4 [32]
00000000: 6f91 7b3f c98a 7b3f eea2 793f 0433 7a3f
00000010: 5332 793f 4aab 7e3f b931 7b3f 4137 7a3f
00000020: fae7 713f 89c2 7b3f e147 7f3f e819 873f
00000030: ebd6 803f 3b37 763f dd69 823f 5b87 803f
00000040: b3a7 763f ff28 753f 4127 833f 78f0 813f
00000050: 4f1b 813f 3553 7e3f 56cc 783f b127 7f3f
00000060: ee71 853f 0faa 7b3f a6e1 7a3f dddf 7c3f
00000070: c36c 7d3f cf6f 7e3f f8cc 7f3f 1c91 803f
0.9826879 0.98258644 0.97514236 0.97734094 0.97342414 0.99480116 0.98122746 0.9774056
0.94494593 0.9834371 0.99719054 1.0554781 1.0065588 0.96178025 1.0188557 1.0041307
0.9634964 0.9576568 1.0246354 1.015151 1.0086459 0.99345714 0.9718679 0.9966994
1.0425394 0.98306364 0.9800056 0.9877909 0.9899408 0.99389356 0.9992213 1.0044284

Const_3 f4 [32]
00000000: 2673 b039 5f17 d0bc 697f 20bd a7b0 75bc
00000010: 5a34 f2bc f48e bfba de05 6abc d9f8 e6bb
00000020: 3b42 b73c 3405 19bc b030 183c 0d87 163d
00000030: b081 32b8 8ead b7bc 7c17 763b b529 38bb
00000040: f239 703b 8591 f4bc b123 323c 22a2 663c
00000050: f91e 863c ce78 443b f35a a0bc c1f3 0d3c
00000060: 181a 8b3a 092c e3bb fc2c 90bc 6ac7 f9ba
00000070: dd64 a03a 10ad 843b 7e60 4fbb 4358 353b
0.00033655128 -0.02540177 -0.039184008 -0.0149957305 -0.029565979 -0.0014614747 -0.014283625 -0.007048708
0.022370448 -0.009339619 0.009288952 0.03674989 -4.2559288e-05 -0.022421625 0.003755062 -0.0028101031
0.0036655632 -0.029854545 0.010872767 0.014076741 0.01637219 0.0029979232 -0.019574618 0.0086640725
0.0010612635 -0.0069327396 -0.017599575 -0.0019056622 0.0012237091 0.004048951 -0.0031643207 0.0027671016

Const_5 f4 [32]
00000000: 9bef 12be 5513 1a3e bd73 a23d cb89 2cbe
00000010: bbc5 fb3d fee7 8a3d d1ee 0dbe 3e1f 973d
00000020: 5842 5a3d 5da3 a73d fb93 0f3d 6faf 933d
00000030: 7fbd e2bd 1285 e23d 7b7c 47bd d9e9 dbbd
00000040: 843b c73d 7ce2 a3bd c87b 8abd 123b 103e
00000050: cda5 7bbd 6e3e 073e 3427 0c3e 688c fc3d
00000060: 6b21 a1bd aa07 f3bd 7187 913c 8eaa ac3d
00000070: 5577 ffbd e276 f9bd ef95 95bb fb67 0ebe
-0.14349215 0.15046437 0.079322316 -0.16849439 0.122935735 0.0678253 -0.13860632 0.07379006
0.053285927 0.08185456 0.035053235 0.07211196 -0.110713 0.110605374 -0.0487027 -0.10737962
0.097281486 -0.08002183 -0.06761891 0.14085034 -0.061437417 0.13207409 0.1368683 0.12331468
-0.07867702 -0.11866696 0.017764779 0.08430968 -0.12473933 -0.12180878 -0.0045649926 -0.13906853

Const_6 f4 [32]
00000000: 7998 8e3f 0610 9d3f e21f 8f3f cf37 9f3f
00000010: d0f0 913f c5fa a03f 2e96 9a3f 7cbf 7c3f
00000020: 424c a33f bbb8 873f 2498 863f d24f 853f
00000030: 6a74 9c3f 0231 8d3f 8c10 9b3f c24d 8b3f
00000040: 5ac2 883f b664 873f 3455 9d3f 7f7e a63f
00000050: 443e 8f3f e858 a43f 315e 873f 275f 6e3f
00000060: dc80 9c3f 61c5 843f 0dcb 813f 266a 8d3f
00000070: 0c2a 893f b244 a23f 9d18 783f 6a24 943f
1.1140281 1.2270515 1.1181605 1.2438906 1.1401615 1.2576529 1.2077081 0.9872968
1.2757647 1.060325 1.051518 1.0414984 1.2223027 1.1030581 1.2114425 1.0883105
1.0684311 1.057761 1.2291627 1.3007354 1.1190877 1.2839632 1.057562 0.9311394
1.2226825 1.0372735 1.0140091 1.1048019 1.0715957 1.2677214 0.96912557 1.1573613

Const_7 f4 [32]
00000000: b3bc a33d e48e 6c3e d9d2 dc3d c7ab 6e3e
00000010: 46d8 f83d 412b 7f3e 61d3 613e 9069 e9bc
00000020: 1988 7a3e 422d 793d d076 c43c c165 243d
00000030: 2124 623e 7dd8 3d3d 6ec5 593e 2efe 883d
00000040: 2525 6c3d ed1a 3d3d 242e 693e 8e48 793e
00000050: 1e5f e33d aafe 793e 3ecb 343d f466 9ebd
00000060: b85c 673e f2c7 ed3c 641a e6bc 4959 cf3d
00000070: 9fb5 a83d 23a4 6d3e ce2c 35bd 8c61 0f3e
0.07994976 0.23101383 0.107824035 0.23307715 0.12150626 0.24918844 0.22053291 -0.028492719
0.2446598 0.060834177 0.023982435 0.040136103 0.22084095 0.046349037 0.2126672 0.06689106
0.05765261 0.046168257 0.22771508 0.24344084 0.111021265 0.24413553 0.04413914 -0.077344805
0.22593963 0.029026005 -0.028088756 0.10124452 0.082377665 0.23207144 -0.044232182 0.14002055

MatMul f4 [32, 1536]
00000000: a78f a9bc 0b78 59bc 690b 803c 475e 843c
00000010: f5f2 3c3c 1145 fb3b aefc 8dbc 319b 4f3c
00000020: afb8 03bd 5e56 6e3c da97 a83c 47b3 0bbc
00000030: 6d76 26bc dcba fe3b 7088 e93a a79f d13c
00000040: 14f7 073c ac34 923c 728d 85bc b9e1 56bc
00000050: d125 19bd 5dbb 163c c22e 38bb c220 8e3c
00000060: 8781 0f3d ec1c 8abb dfba 0fbb 3d8e 023d
00000070: 528a eb3c e260 03bb c5ff e93c 060c 48bb
00000080: 4aa6 473c 23e6 d83b 9ab1 dc3c 7879 0ebb
00000090: f1d3 243c 968c 3dbc 01c2 f2bc 11e9 a0bc
000000a0: 7f4c f2bc f697 da3c 2077 10bc 8bea 063c
000000b0: 8828 0bbc 90db 12bd 4967 6f3c 2b53 d53c
000000c0: 6f70 bdbb 84d9 873c bc85 a03c 1a5b 7abc
000000d0: 1040 ffbc 5060 bdbb 8533 bcbc 18ed 843a
000000e0: 029c d6bc 3bc1 cb3c f2c9 9c3c 02b1 c9bc
000000f0: 94a0 a3bc 5b6c 6c3b 0e34 2dbb c035 c23c
00000100: 74c6 86ba 54fd 05bc 2a61 f83b b6e1 973c
00000110: 8cf4 853c a4fb 15bb fc61 39bd 0cf4 a0bc
00000120: 0aaa bc3c 12e9 91bb 02c3 263b 5be9 f9bc
00000130: 16a4 883c 97ec b63a 8840 47bc acc7 a9bc
00000140: 003a 873c 51c8 57bc 4c0e d33b a13a 1cbc
00000150: e376 963c 4110 003c 2acf 8dbb 0387 4fbc
00000160: 37c0 e23b 7b0c d8bb 181f 3cbc 217f a4ba
00000170: 9178 acbb 620b f4bb b34e 863c 5ef1 bd3c
00000180: b62b 84bc aa75 433c d171 6c3c 0e4f 553b
00000190: 866a c73c d229 9ebc e254 aa37 3180 b73c
000001a0: 0203 e8bc ce10 de3c 7b47 443c ccb0 323b
000001b0: c103 8d3c 0623 c23b abe7 1bbc b2a8 b5bb
000001c0: bb26 31bb 2771 64bc 692c 97bc 4abb a63c
000001d0: 3ea3 353b d56f 8abc a5de 14bc 867f e5bc
000001e0: 03a4 d63b 0607 313c 289a 3abc e30e 7b3c
000001f0: 868e 013d 91a8 b93a e565 923b 0327 adbc
00000200: bde9 20ba 3d2f a1bc fe4c aa3b b821 253c
00000210: 13f8 7d3c 30ac 76bc 1514 d8bc 7457 a33c
00000220: 0509 51bc 6314 38bc 62b0 3b3c 9337 a6bc
00000230: 4e0e c83b 59ae f0bc 6927 e23b c1d2 2fbc
00000240: dcca 74ba 7812 f8bb e2da c13c 6579 c83c
00000250: 9ab8 733c 4a04 a73c 6ed9 723c 5f06 8fb8
00000260: 7043 413c 0cd9 6e3c 57cc 23bc 7840 a9bc
00000270: 1c10 5f3c ba18 7d3b e435 a3bc 1163 37bc
00000280: 06ae f93b 17c9 343c 7830 0aba 89b2 273c
00000290: 34bb e0bb e8f9 d73c ba7e f7bc 8868 003c
000002a0: 6496 ccba 6f43 d23c dd80 0dbc a3fe 99bc
000002b0: 32a1 9abc 729b 373b de21 9cbb 44a8 8d3c
000002c0: 8271 e8bc 83d0 533c ff3c 91bb 148f 6eba
000002d0: 21bb 893c 4e26 493b 4aff 123c 791e 693c
000002e0: f8f9 b6bc 62c5 26bc 4d0e 093d 45cf 74bc
000002f0: 5d45 68bb 10c3 4d3c 7107 abbc 3fd5 bcbc
00000300: 1151 923c f16c 6bbc 21b7 5e3b ca16 453c
00000310: 58e2 123b 61fa 4ebc c33e 983c edd3 d33c
00000320: ce4a 443c 550f c0ba 305d 1d3c cd6f a83b
00000330: 28d2 b83a 60df 42bc 684b b63c b1d8 303c
00000340: b729 a63b b5b0 ae3c a884 043d 525b ca3c
00000350: 258e 11bd f382 e63c 27d2 9a3c 101f 4d3c
00000360: 5fe2 c93b 83cc e53a f29a 9f3b a413 86bc
00000370: aa9d c93c 39eb 33bc 71ac 8c3a 5246 ab3b
00000380: f4af 0c3c fabf 863c e1c3 8dbc bab8 033c
00000390: be63 263c ca6d 1e3c 9df9 593c c4ac 653c
000003a0: 10ee bfbc 6c17 733c 8d07 ae3c 4c6c 26bb
000003b0: 94a3 c73b 22da b53b ee32 6a3c 8cc7 f4ba
000003c0: 58ad a63a d653 073c 64d6 e83b 612c 4c3c
000003d0: 8677 e2bc 86d0 e93c 091a c93c 995c b23c
000003e0: e516 2dbc ab7d 9fbc 4965 023c a764 1b3c
000003f0: 1ce6 47bb ecb3 d3bc f7a8 293a 5954 61bc
-0.020698382 -0.013273249 0.01563044 0.016158236 0.011532535 0.0076681455 -0.017332401 0.012671278
-0.03215855 0.014546959 0.020580221 -0.00852663 -0.010160071 0.00777374 0.0017817151 0.025588823
0.008298654 0.017847382 -0.016302798 -0.01311534 -0.03738958 0.009199944 -0.0028104042 0.017349605
0.035035636 -0.0042148735 -0.0021931452 0.03187393 0.02875248 -0.002004676 0.028564343 -0.0030524745
0.0121856425 0.0066192313 0.026940156 -0.0021739881 0.010060296 -0.011569163 -0.029633524 -0.019642385
-0.029577492 0.026683789 -0.008817464 0.00823463 -0.00849355 -0.035853922 0.014612027 0.026040634
-0.0057812254 0.016583212 0.01959502 -0.015280509 -0.031158477 -0.0057793036 -0.022973785 0.001014146
-0.026197437 0.024872413 0.019139264 -0.024620537 -0.01997403 0.0036075327 -0.0026428732 0.02370727
-0.0010282532 -0.008178074 0.0075799422 0.018540245 0.01635196 -0.0022885585 -0.04525946 -0.01964762
0.0230303 -0.004452833 0.0025445824 -0.03050678 0.016679805 0.0013956007 -0.012161382 -0.020725094
0.016507149 -0.013170318 0.0064409133 -0.009535463 0.018367236 0.007816375 -0.0043276744 -0.012666467
0.0069198865 -0.0065932847 -0.011482023 -0.0012550094 -0.005263396 -0.007447646 0.016394949 0.023186382
-0.016134124 0.011929909 0.014431433 0.003254834 0.024342787 -0.01930705 2.0305106e-05 0.022399994
-0.028321747 0.027107622 0.011979933 0.0027266024 0.017213704 0.0059245853 -0.009515683 -0.0055437917
-0.0027031142 -0.013942993 -0.018453794 0.020352978 0.0027715708 -0.016899029 -0.009086286 -0.02801491
0.0065503134 0.010804897 -0.011389293 0.0153233735 0.03163006 0.0014164617 0.004467713 -0.021136766
-0.00061383453 -0.019675845 0.0051971665 0.01007884 0.01550104 -0.015055701 -0.026376763 0.019939162
-0.012758498 -0.011235329 0.011455627 -0.020290172 0.006105221 -0.02938001 0.0069016707 -0.0107314
-0.000933809 -0.007570561 0.023663942 0.024471948 0.014875555 0.020387787 0.014822347 -6.819958e-05
0.0117958635 0.014578115 -0.009997449 -0.020660624 0.013614681 0.0038619475 -0.019923158 -0.011193053
0.007619622 0.011034272 -0.00052715046 0.010235437 -0.006858254 0.026364282 -0.030211795 0.007837422
-0.0015608785 0.02566692 -0.00863668 -0.018798178 -0.018875692 0.0028016237 -0.0047647795 0.01729215
-0.028374437 0.012928131 -0.00443232 -0.00091003 0.016812863 0.0030692997 0.0089719985 0.014228457
-0.022335991 -0.010178896 0.033460904 -0.014941995 -0.0035441734 0.012558714 -0.020877572 -0.023050902
0.017860921 -0.014369235 0.0033983665 0.012029359 0.0022412743 -0.012632937 0.018584615 0.02585789
0.011980725 -0.0014653007 0.009604737 0.005140281 0.0014100717 -0.011894077 0.022252753 0.010793851
0.0050708908 0.021324495 0.032353073 0.024701748 -0.03553595 0.028138613 0.018899037 0.012519613
0.0061610187 0.0017532263 0.004870766 -0.016366787 0.024611313 -0.010981374 0.0010732544 0.0052268887
0.008586872 0.016448963 -0.017305316 0.008039648 0.010155616 0.00966973 0.013304141 0.014018241
-0.023428947 0.014837127 0.021243835 -0.002539414 0.006092498 0.005549685 0.014294369 -0.0018675192
0.0012716455 0.008259734 0.0071056355 0.012461753 -0.027644884 0.028541815 0.024548547 0.02177267
-0.0105645405 -0.019469103 0.007958719 0.009484447 -0.0030502146 -0.02584263 0.0006472016 -0.01375302

MatMul_1 f4 [32, 32]
00000000: 9367 dbbd 12fd 00be 6fee 243e a81a 383e
00000010: d74a 1b3e d7d6 c53d 1f61 ce3c b0cb 12be
00000020: 4608 09be 06b6 6ebd f718 b2bd 8a59 013e
00000030: 2f7b 37bd 1327 b63d f8bf 5bbc f228 04bd
00000040: 6682 513d 83aa f13c 40ad 00be abe4 683d
00000050: e037 3ebb 3b27 83bd 02f7 5f3d 5cd3 363e
00000060: 8f8a eebd ab47 253e 48da 05be 6a22 243e
00000070: e7de 673d 8cbf 41bd 06a4 343d 6fcc 86bc
00000080: a4dc c83d 045a 893d 239a 9b3d d615 afbb
00000090: e2ae acbd a200 093e 4a5c 903c 0549 aabc
000000a0: 6f17 413d 0368 233e 96cd ffbd b128 18be
000000b0: 4f0f 0f3e 587f f5bc 5cf5 25be ef0c 2eba
000000c0: 9dc5 c03d 1f91 103d 7b77 06bd 75ff d1bd
000000d0: 121e c33d 19cd 7fbd 07c6 023d e615 6dbd
000000e0: 0662 f23d fd90 bf3d 438a d7bd 84c1 853d
000000f0: 3571 fa3d 561e cabd ecbe ef3d 028b 53bd
00000100: 947c bf3d 1e2d 453d 34c9 ffbd 67d9 303e
00000110: 5fd1 a6bd d5d2 22bd 2bb5 9abb 1463 f53d
00000120: c469 b83d 8b16 ae3b b984 ff3d 099b 083e
00000130: 288f 77bd 561d f4bd 2085 11be 6d83 363e
00000140: d30c 24be 37b3 8fbc 702a 343e ee6b 373e
00000150: aa96 073e 6222 943d 43b5 06bd ae21 77bd
00000160: 1a32 e6bd fade 85bc 114a aebb e263 093d
00000170: 7ff1 1abe 15bd a2bc 5071 a3bd c5dc 82bd
00000180: cf46 003e ea62 143e 8167 113e 9a34 87bc
00000190: d19d fc3c 46a1 073e 9469 1c3d 1dc2 35be
000001a0: 2e8a e23d 543a de3b 2342 0e3e 1b36 2bbe
000001b0: 4f62 063d 1f90 603d 44e4 6abc 90fd 4abd
000001c0: adf3 953d 481f b83d 6d5c 833d 92aa eabd
000001d0: 85d1 103e ce2e 0abe bfa5 093e 00a7 16be
000001e0: 3172 13bd 699d 04be 07a8 25be 5cc6 b7bd
000001f0: afe7 1a3d 88cb 233d 612c 0c3e 19f7 aebd
00000200: 438c 863d 1f6a 12be 7a93 aebc 290b 4d3b
00000210: 8e1a fbbd 5c5f 853d fda2 203e 02a1 e53d
00000220: ae20 473c a6bb b83c 6a9c cb3d 5701 0c3e
00000230: 44d4 8bbc 4d6d 16be ab36 dabd 564e 093e
00000240: 813e 77bd 94c9 7b3b f5ee 093e 454d 353e
00000250: 8add 5a3c 398a f1bd 35f5 1d3e 1c07 babd
00000260: 916e 21be b5d4 f8bd 8db9 21be e099 7abd
00000270: 835b ab3d 5b67 f43c a8ee cdbd d34e c23c
00000280: fcb4 053e dcac 753d 8182 133e eaaf bcbd
00000290: 01f6 193e a601 023e cc7c ebbd 994c 413d
000002a0: 9bd4 f3bd e140 fe3d b81e 35be 77f8 813d
000002b0: d41a 8dbd 7db0 e63d 6ba1 8c3d a538 daba
000002c0: f60b 073e 7079 043d bfb5 103e 1d67 09be
000002d0: d6f0 eebd cc77 c33c 019b 1ebd e7f0 9b3d
000002e0: 8aa4 153d 4c89 2fbd 4380 953d 9991 8f3d
000002f0: f96d 5dbd 64b5 8fbd c79f ee3d a252 8b3c
00000300: 8a3a 763d 6f3d b53d 4fe2 fcbd 059b 10be
00000310: bf67 1abe f46b 193e cbde a2bd 7194 d13d
00000320: e091 48bc f2ff 693d 9c3e d2bd 3eab 01be
00000330: 2d8a 2a3e 514a 033e 409d 2a3d fe3b e0bd
00000340: 63c5 d63d 96a0 e9bd 96f2 c43d da74 64bc
00000350: 3bf3 a0bd 04bf c83c 399c b9bd 3601 15bd
00000360: 0f7c 1c3e 2173 073e 7459 283e 7b33 bb3d
00000370: 097d ca3d fd3a 40bc c8fb 223e 5f5f 9abd
00000380: 7982 f53d ee51 15be 6856 233e 6400 ea3c
00000390: 6741 d8bd bebc 7fbc f08d 69bd 288a b53d
000003a0: 5292 82bd c52e c7bd 1e0d cc3c ff80 cfbd
000003b0: 47da 8e3c 85dd 083e 79c1 3abe 3fe5 78bd
000003c0: 2f1c 65bc 3171 a33d 0a5d ac3d 4a6a 163e
000003d0: 395b eabd f8a8 003e 4d34 d9bd 4323 2d3e
000003e0: c9e6 f9bd bcdc 2a3e cd9e 173e c5cd 9fbd
000003f0: f462 4c3d 4d37 e03d fa14 eb3d 76a9 8fbd
-0.107131146 -0.12596539 0.1610658 0.17978919 0.15165268 0.09660118 0.025192795 -0.14335513
-0.13382062 -0.05827906 -0.08696168 0.12631813 -0.04479521 0.088941716 -0.013412468 -0.03226561
0.05114975 0.029500252 -0.1256609 0.0568587 -0.0029025003 -0.06403967 0.054678924 0.17854065
-0.11647522 0.1614062 -0.13071549 0.16028753 0.05660906 -0.047301814 0.044101737 -0.016454903
0.09807709 0.06706622 0.075977586 -0.005343179 -0.08431794 0.13379148 0.017622132 -0.020786772
0.04714149 0.15957646 -0.12490384 -0.14859273 0.13970684 -0.029967949 -0.16206878 -0.00066395005
0.09412692 0.03529465 -0.03282879 -0.10253803 0.0952722 -0.062451456 0.031927135 -0.057882212
0.11835103 0.09353826 -0.10524418 0.06531051 0.12228624 -0.09869067 0.11706337 -0.05164624
0.09349933 0.04813873 -0.12489548 0.17270432 -0.08145403 -0.039751846 -0.004721304 0.11981788
0.09004548 0.005312746 0.12476487 0.13340391 -0.06043926 -0.11919658 -0.1421094 0.17823572
-0.16020517 -0.017541511 0.17594314 0.17912266 0.13241068 0.072331205 -0.03288771 -0.060334854
-0.11240025 -0.016341675 -0.005318888 0.03354252 -0.15131186 -0.019865552 -0.07980597 -0.06389765
0.12527011 0.14490858 0.1419964 -0.016504575 0.030836971 0.13245115 0.038186625 -0.1774983
0.11061512 0.0067818556 0.13892417 -0.16719858 0.032808598 0.054824945 -0.014336649 -0.049558222
0.07321868 0.089903414 0.06414113 -0.11458315 0.14142425 -0.13494417 0.13442133 -0.14712143
-0.035997573 -0.12950672 -0.16177379 -0.08973381 0.037818607 0.039989024 0.13688804 -0.08543224
0.065697215 -0.14298294 -0.021310557 0.003128717 -0.12260924 0.06512329 0.15687175 0.112123504
0.012153788 0.022550415 0.09941943 0.13672386 -0.01706899 -0.14690132 -0.10654958 0.13408789
-0.060362343 0.003841971 0.13470061 0.17705257 0.013358483 -0.11793942 0.1542557 -0.09083387
-0.15764834 -0.12149946 -0.15793438 -0.061181903 0.08367064 0.02983444 -0.10055286 0.023719227
0.13057321 0.059979305 0.14405252 -0.092132404 0.1503525 0.12695941 -0.114984125 0.04719219
-0.11905786 0.124147184 -0.176875 0.06346219 -0.06889883 0.11264131 0.068667255 -0.0016648961
0.13188156 0.032342374 0.1413183 -0.13418241 -0.116670296 0.023860835 -0.038722042 0.07614308
0.03653387 -0.042855546 0.072998546 0.070101924 -0.054059956 -0.070170194 0.11651569 0.017007176
0.06011442 0.08849608 -0.123478524 -0.14121635 -0.15078638 0.14982587 -0.07952651 0.10233391
-0.012241811 0.057128854 -0.10265848 -0.1266298 0.16654272 0.12821318 0.04165387 -0.109489426
0.10486867 -0.114075825 0.09616582 -0.013943875 -0.078588925 0.024505146 -0.09063 -0.036378108
0.152817 0.13227512 0.16440374 0.091406785 0.0988713 -0.011732814 0.1591636 -0.07537722
0.11987776 -0.14582035 0.1595093 0.02856464 -0.105593495 -0.0156089645 -0.057020128 0.08864242
-0.06375565 -0.097257175 0.024908599 -0.10132026 0.017438067 0.13365753 -0.18237866 -0.0607655
-0.01398377 0.07980574 0.08416183 0.14688984 -0.114431806 0.12564456 -0.10605679 0.16907983
-0.12202222 0.16685766 0.14806671 -0.07802919 0.049899057 0.10948048 0.1147861 -0.07014744

MatMul_2 f4 [1, 32]
00000000: f10f 7d3e 7d37 97be 400d cc3d 4d4d 9bbe
00000010: ba66 743e 0745 6abe 0202 babe c4ee 35bd
00000020: c33a 9fbe 6118 863d d287 9d3d 123e 9d3d
00000030: 9cf1 9fbe 1966 d13d a027 babe bc8a ff3d
00000040: 619c 043e 23d5 783d 1b60 98be b4a9 a8be
00000050: 19a5 0e3e 9a1d 99be a1f2 5f3e 2e3e 323d
00000060: 8a33 a8be 78e7 e93d e95a 353e ecc2 853e
00000070: 100a 693e 1ba2 a5be 5933 73bd 75da 72be
0.24713112 -0.29534522 0.09963465 -0.30332413 0.23867312 -0.22877894 -0.36329657 -0.044417158
-0.3109952 0.06547619 0.07691921 0.076778546 -0.3123902 0.10224552 -0.36358356 0.12477633
0.12950279 0.060750138 -0.29760823 -0.32941973 0.13930167 -0.29905397 0.218699 0.04351633
-0.3285182 0.11421102 0.1771046 0.26125276 0.22757745 -0.3235024 -0.05937514 -0.23716147
